…
ps://localhost:8080/"},"id":"T_9btkbYl0dZ","executionInfo":{"status":"ok","timestamp":1695284163635,"user_tz":-180,"elapsed":13,"user":{"displayName":"Fyodor Shevchenko","userId":"16098763697658472335"}},"outputId":"9e10d9fe-9318-411a-dc5b-1f19ce4f94b1"},"execution_count":7,"outputs":[{"output_type":"stream","name":"stdout","text":["Model: \"sequential\"\n","_________________________________________________________________\n"," Layer (type)                Output Shape              Param #   \n","=================================================================\n"," conv2d (Conv2D)             (None, 24, 24, 64)        1664      \n","                                                                 \n"," max_pooling2d (MaxPooling2  (None, 12, 12, 64)        0         \n"," D)                                                              \n","                                                                 \n"," conv2d_1 (Conv2D)           (None, 12, 12, 128)       204928    \n","                                                                 \n"," max_pooling2d_1 (MaxPoolin  (None, 6, 6, 128)         0         \n"," g2D)                                                            \n","                                                                 \n"," conv2d_2 (Conv2D)           (None, 6, 6, 128)         409728    \n","                                                                 \n"," max_pooling2d_2 (MaxPoolin  (None, 3, 3, 128)         0         \n"," g2D)                                                            \n","                                                                 \n"," flatten (Flatten)           (None, 1152)              0         \n","                                                                 \n"," dense (Dense)               (None, 32)                36896     \n","                                                                 \n"," dense_1 (Dense)             (None, 10)                330       \n","                                                                 \n","=================================================================\n","Total params: 653546 (2.49 MB)\n","Trainable params: 653546 (2.49 MB)\n","Non-trainable params: 0 (0.00 Byte)\n","_________________________________________________________________\n"]}]},{"cell_type":"code","source":["history = model.fit(\n","    X
…
"displayName":"Fyodor Shevchenko","userId":"16098763697658472335"}},"outputId":"7d18729a-15c3-48f3-d58b-e1420b2bbbc1"},"execution_count":21,"outputs":[{"output_type":"stream","name":"stdout","text":["Model: \"vgg16\"\n","_________________________________________________________________\n"," Layer (type)                Output Shape              Param #   \n","=================================================================\n"," input_1 (InputLayer)        [(None, 32, 32, 3)]       0         \n","                                                                 \n"," block1_conv1 (Conv2D)       (None, 32, 32, 64)        1792      \n","                                                                 \n"," block1_conv2 (Conv2D)       (None, 32, 32, 64)        36928     \n","                                                                 \n"," block1_pool (MaxPooling2D)  (None, 16, 16, 64)        0         \n","                                                                 \n"," block2_conv1 (Conv2D)       (None, 16, 16, 128)       73856     \n","                                                                 \n"," block2_conv2 (Conv2D)       (None, 16, 16, 128)       147584    \n","                                                                 \n"," block2_pool (MaxPooling2D)  (None, 8, 8, 128)         0         \n","                                                                 \n"," block3_conv1 (Conv2D)       (None, 8, 8, 256)         295168    \n","                                                                 \n"," block3_conv2 (Conv2D)       (None, 8, 8, 256)         590080    \n","                                                                 \n"," block3_conv3 (Conv2D)       (None, 8, 8, 256)         590080    \n","                                                                 \n"," block3_pool (MaxPooling2D)  (None, 4, 4, 256)         0         \n","                                                                 \n"," block4_conv1 (Conv2D)       (None, 4, 4, 512)         1180160   \n","                                                                 \n"," block4_conv2 (Conv2D)       (None, 4, 4, 512)         2359808   \n","                                                                 \n"," block4_conv3 (Conv2D)       (None, 4, 4, 512)         2359808   \n","                                                                 \n"," block4_pool (MaxPooling2D)  (None, 2, 2, 512)         0         \n","                                                                 \n"," block5_conv1 (Conv2D)       (None, 2, 2, 512)         2359808   \n","                                                                 \n"," block5_conv2 (Conv2D)       (None, 2, 2, 512)         2359808   \n","                                                                 \n"," block5_conv3 (Conv2D)       (None, 2, 2, 512)         2359808   \n","                                                                 \n"," block5_pool (MaxPooling2D)  (None, 1, 1, 512)         0         \n","                                                                 \n","=================================================================\n","Total params: 14714688 (56.13 MB)\n","Trainable params: 0 (0.00 Byte)\n","Non-trainable params: 14714688 (56.13 MB)\n","_________________________________________________________________\n"]}]},{"cell_type":"code","source":["for i, layer in enumer
…
